…
ion_input_placeholder = Input(shape = (latent_dimension, ), name = &#39;ConditionInput&#39;) generated_image = generator([noise_input_placeholder, condition_input_placeholder]) discriminator.trainable = False validity = discriminator([generated_image, condition_input_placeholder]) gan = Model([noise_input_placeholder, condition_input_placeholder], validity) return gan . generator = build_generator(100) SVG(model_to_dot(generator, show_shapes = True, show_layer_names = True).create(prog = &#39;dot&#39;, format = &#39;svg&#39;)) . G 140312362508416 input_1: InputLayer input: output: (None, 100) (None, 100) 140312362509368 dense: Dense input: output: (None, 100) (None, 1024) 140312362508416-&gt;140312362509368 140312325040840 input_2: InputLayer input: output: (None, 100) (None, 100) 140312325041064 dense_2: Dense input: output: (None, 100) (None, 1024) 140312325040840-&gt;140312325041064 140314454421456 activation: Activation input: output: (None, 1024) (None, 1024) 140312362509368-&gt;140314454421456 140312324491864 activation_1: Activation input: output: (None, 1024) (None, 1024) 140312325041064-&gt;140312324491864 140314725539288 dense_1: Dense input: output: (None, 1024) (None, 6272) 140314454421456-&gt;140314725539288 140312323695784 dense_3: Dense input: output: (None, 1024) (None, 6272) 140312324491864-&gt;140312323695784 140312333816888 batch_normalization_v1: BatchNormalizationV1 input: output: (None, 6272) (None, 6272) 140314725539288-&gt;140312333816888 140312323821696 batch_normalization_v1_1: BatchNormalizationV1 input: output: (None, 6272) (None, 6272) 140312323695784-&gt;140312323821696 140312362510880 reshape: Reshape input: output: (None, 6272) (None, 7, 7, 128) 140312333816888-&gt;140312362510880 140312323823096 reshape_1: Reshape input: output: (None, 6272) (None, 7, 7, 128) 140312323821696-&gt;140312323823096 140312323696232 concatenate: Concatenate input: output: [(None, 7, 7, 128), (None, 7, 7, 128)] (None, 7, 7, 256) 140312362510880-&gt;140312323696232 140312323823096-&gt;140312323696232 140312323402888 up_sampling2d: UpSampling2D input: output: (None, 7, 7, 256) (None, 14, 14, 256) 140312323696232-&gt;140312323402888 140312323380504 conv2d: Conv2D input: output: (None, 14, 14, 256) (None, 14, 14, 64) 140312323402888-&gt;140312323380504 140312322587000 activation_2: Activation input: output: (None, 14, 14, 64) (None, 14, 14, 64) 140312323380504-&gt;140312322587000 140312322588232 up_sampling2d_1: UpSampling2D input: output: (None, 14, 14, 64) (None, 28, 28, 64) 140312322587000-&gt;140312322588232 140312322272784 conv2d_1: Conv2D input: output: (None, 28, 28, 64) (None, 28, 28, 1) 140312322588232-&gt;140312322272784 140312322199736 activation_3: Activation input: output: (None, 28, 28, 1) (None, 28, 28, 1) 140312322272784-&gt;140312322199736 discriminator = build_discriminator((28, 28, 1), 100) SVG(model_to_dot(discriminator, show_shapes = True, show_layer_names = True).create(prog = &#39;dot&#39;, format = &#39;svg&#39;)) . G 140312321771112 input_4: InputLayer input: output: (None, 100) (None, 100) 140312321772232 dense_4: Dense input: output: (None, 100) (None, 1024) 140312321771112-&gt;140312321772232 140312321228304 activation_6: Activation input: output: (None, 1024) (None, 1024) 140312321772232-&gt;140312321228304 140312320950736 input_3: InputLayer input: output: (None, 28, 28, 1) (None, 28, 28, 1) 140312320933728 conv2d_3: Conv2D input: output: (None, 28, 28, 1) (None, 24, 24, 128) 140312320950736-&gt;140312320933728 140312320776960 dense_5: Dense input: output: (None, 1024) (None, 18432) 140312321228304-&gt;140312320776960 140312320930984 activation_5: Activation input: output: (None, 24, 24, 128) (None, 24, 24, 128) 140312320933728-&gt;140312320930984 140312320777520 batch_normalization_v1_2: BatchNormalizationV1 input: output: (None, 18432) (None, 18432) 140312320776960-&gt;140312320777520 140312321131856 max_pooling2d_1: MaxPooling2D input: output: (None, 24, 24, 128) (None, 12, 12, 128) 140312320930984-&gt;140312321131856 140312320933168 reshape_2: Reshape input: output: (None, 18432) (None, 12, 12, 128) 140312320777520-&gt;140312320933168 140312320775336 concatenate_1: Concatenate input: output: [(None, 12, 12, 128), (None, 12, 12, 128)] (None, 12, 12, 256) 140312321131856-&gt;140312320775336 140312320933168-&gt;140312320775336 140312321312584 flatten: Flatten input: output: (None, 12, 12, 256) (None, 36864) 140312320775336-&gt;140312321312584 140312321702264 dense_6: Dense input: output: (None, 36864) (None, 1024) 140312321312584-&gt;140312321702264 140312318464912 activation_7: Activation input: output: (None, 1024) (None, 1024) 140312321702264-&gt;140312318464912 140312318465472 dense_7: Dense input: output: (None, 1024) (None, 1) 140312318464912-&gt;140312318465472 gan = build_gan(generator, discriminator, (28, 28, 1), 100) SVG(model_to_dot(gan, show_shapes = True, show_layer_names = True).create(prog = &#39;dot&#39;, format = &#39;svg&#39;)) . G 140314030117832 NoiseInput: InputLayer input: output: (None, 100) (None, 100) 140312322201752 Generator: Model input: output: [(None, 100), (None, 100)] (None, 28, 28, 1) 140314030117832-&gt;140312322201752 140314597677600 ConditionInput: InputLayer input: output: (None, 100) (None, 100) 140314597677600-&gt;140312322201752 140312321019744 Discriminator: Model input: output: [(None, 28, 28, 1), (None, 100)] (None, 1) 140314597677600-&gt;140312321019744 140312322201752-&gt;140312321019744 optimizer = Adam(0.0002, 0.5) . generator.compile(loss = &#39;binary_crossentropy&#39;, optimizer = optimizer) gan.compile(loss = &#39;binary_crossentropy&#39;, optimizer = optimizer) discriminator.trainable = True discriminator.compile(loss = &#39;binary_crossentropy&#39;, optimizer = optimizer) . for epoch in range(EPOCHS): progress_bar = t
…
local/lib/python3.6/dist-packages/tensorflow/python/ops/array_ops.py:1354: add_dispatch_support.&lt;locals&gt;.wrapper (from tensorflow.python.ops.array_ops) is deprecated and will be removed in a future version. Instructions for updating: Use tf.where in 2.0, which has the same broadcast rule as np.where Model: &#34;model_1&#34; __________________________________________________________________________________________________ Layer (type) Output Shape Param # Connected to ================================================================================================== the_input (InputLayer) (None, 128, 64, 1) 0 __________________________________________________________________________________________________ conv1 (Conv2D) (None, 128, 64, 64) 640 the_input[0][0] __________________________________________________________________________________________________ batch_normalization_1 (BatchNor (None, 128, 64, 64) 256 conv1[0][0] __________________________________________________________________________________________________ activation_1 (Activation) (None, 128, 64, 64) 0 batch_normalization_1[0][0] __________________________________________________________________________________________________ max1 (MaxPooling2D) (None, 64, 32, 64) 0 activation_1[0][0] __________________________________________________________________________________________________ conv2 (Conv2D) (None, 64, 32, 128) 73856 max1[0][0] __________________________________________________________________________________________________ batch_normalization_2 (BatchNor (None, 64, 32, 128) 512 conv2[0][0] __________________________________________________________________________________________________ activation_2 (Activation) (None, 64, 32, 128) 0 batch_normalization_2[0][0] __________________________________________________________________________________________________ max2 (MaxPooling2D) (None, 32, 16, 128) 0 activation_2[0][0] __________________________________________________________________________________________________ conv3 (Conv2D) (None, 32, 16, 256) 295168 max2[0][0] __________________________________________________________________________________________________ batch_normalization_3 (BatchNor (None, 32, 16, 256) 1024 conv3[0][0] __________________________________________________________________________________________________ activation_3 (Activation) (None, 32, 16, 256) 0 batch_normalization_3[0][0] __________________________________________________________________________________________________ conv4 (Conv2D) (None, 32, 16, 256) 590080 activation_3[0][0] __________________________________________________________________________________________________ batch_normalization_4 (BatchNor (None, 32, 16, 256) 1024 conv4[0][0] __________________________________________________________________________________________________ activation_4 (Activation) (None, 32, 16, 256) 0 batch_normalization_4[0][0] __________________________________________________________________________________________________ max3 (MaxPooling2D) (None, 32, 8, 256) 0 activation_4[0][0] __________________________________________________________________________________________________ conv5 (Conv2D) (None, 32, 8, 512) 1180160 max3[0][0] __________________________________________________________________________________________________ batch_normalization_5 (BatchNor (None, 32, 8, 512) 2048 conv5[0][0] __________________________________________________________________________________________________ activation_5 (Activation) (None, 32, 8, 512) 0 batch_normalization_5[0][0] __________________________________________________________________________________________________ conv6 (Conv2D) (None, 32, 8, 512) 2359808 activation_5[0][0] __________________________________________________________________________________________________ batch_normalization_6 (BatchNor (None, 32, 8, 512) 2048 conv6[0][0] __________________________________________________________________________________________________ activation_6 (Activation) (None, 32, 8, 512) 0 batch_normalization_6[0][0] __________________________________________________________________________________________________ max4 (MaxPooling2D) (None, 32, 4, 512) 0 activation_6[0][0] __________________________________________________________________________________________________ con7 (Conv2D) (None, 32, 4, 512) 1049088 max4[0][0] __________________________________________________________________________________________________ batch_normalization_7 (BatchNor (None, 32, 4, 512) 2048 con7[0][0] __________________________________________________________________________________________________ activation_7 (Activation) (None, 32, 4, 512) 0 batch_normalization_7[0][0] __________________________________________________________________________________________________ reshape (Reshape) (None, 32, 2048) 0 activation_7[0][0] __________________________________________________________________________________________________ dense1 (Dense) (None, 32, 64) 131136 reshape[0][0] __________________________________________________________________________________________________ lstm1 (CuDNNLSTM) (None, 32, 256) 329728 dense1[0][0] __________________________________________________________________________________________________ lstm1_b (CuDNNLSTM) (None, 32, 256) 329728 dense1[0][0] __________________________________________________________________________________________________ add_1 (Add) (None, 32, 256) 0 lstm1[0][0] lstm1_b[0][0] __________________________________________________________________________________________________ batch_normalization_8 (BatchNor (None, 32, 256) 1024 add_1[0][0] __________________________________________________________________________________________________ lstm2 (CuDNNLSTM) (None, 32, 256) 526336 batch_normalization_8[0][0] __________________________________________________________________________________________________ lstm2_b (CuDNNLSTM) (None, 32, 256) 526336 batch_normalization_8[0][0] __________________________________________________________________________________________________ concatenate_1 (Concatenate) (None, 32, 512) 0 lstm2[0][0] lstm2_b[0][0] __________________________________________________________________________________________________ dense2 (Dense) (None, 32, 42) 21546 concatenate_1[0][0] __________________________________________________________________________________________________ softmax (Activation) (None, 32, 42) 0 dense2[0][0] __________________________________________________________________________________________________ the_labels (InputLayer) (None, 9) 0 __________________________________________________________________________________________________ input_length (InputLayer) (None, 1) 0 __________________________________________________________________________________________________ label_length (InputLayer) (None, 1) 0 __________________________________________________________________________________________________ ctc (Lambda) (None, 1) 0 softmax[0][0] the_labels[0][0] input_length[0][0] label_length[0][0] ================================================================================================== Total params: 7,423,594 Trainable params: 7,418,602 Non-trainable params: 4,992 __________________________________________________________________________________________________ . plot_model( model, to_file = &#39;model.png&#39;, 
…
1 ), metrics = None ) return gan . discriminator = build_discriminator((64, 64, 3), 0.0002, 0.5) discriminator.summary() . WARNING:tensorflow:From /opt/conda/lib/python3.6/site-packages/tensorflow/python/ops/resource_variable_ops.py:435: colocate_with (from tensorflow.python.framework.ops) is deprecated and will be removed in a future version. Instructions for updating: Colocations handled automatically by placer. _________________________________________________________________ Layer (type) Output Shape Param # ================================================================= conv2d (Conv2D) (None, 32, 32, 64) 4864 _________________________________________________________________ leaky_re_lu (LeakyReLU) (None, 32, 32, 64) 0 _________________________________________________________________ conv2d_1 (Conv2D) (None, 16, 16, 128) 204928 _________________________________________________________________ batch_normalization_v1 (Batc (None, 16, 16, 128) 512 _________________________________________________________________ leaky_re_lu_1 (LeakyReLU) (None, 16, 16, 128) 0 _________________________________________________________________ conv2d_2 (Conv2D) (None, 8, 8, 256) 819456 _________________________________________________________________ batch_normalization_v1_1 (Ba (None, 8, 8, 256) 1024 _________________________________________________________________ leaky_re_lu_2 (LeakyReLU) (None, 8, 8, 256) 0 _________________________________________________________________ conv2d_3 (Conv2D) (None, 4, 4, 512) 3277312 _________________________________________________________________ batch_normalization_v1_2 (Ba (None, 4, 4, 512) 2048 _________________________________________________________________ leaky_re_lu_3 (LeakyReLU) (None, 4, 4, 512) 0 _________________________________________________________________ flatten (Flatten) (None, 8192) 0 _________________________________________________________________ dense (Dense) (None, 1) 8193 _________________________________________________________________ activation (Activation) (None, 1) 0 ================================================================= Total params: 4,318,337 Trainable params: 4,316,545 Non-trainable params: 1,792 _________________________________________________________________ . SVG(model_to_dot(discriminator, show_shapes = True, show_layer_names = True).create(prog = &#39;dot&#39;, format = &#39;svg&#39;)) . G 139831912525384 conv2d: Conv2D input: output: (None, 64, 64, 3) (None, 32, 32, 64) 139831912524712 leaky_re_lu: LeakyReLU input: output: (None, 32, 32, 64) (None, 32, 32, 64) 139831912525384-&gt;139831912524712 139831912523872 conv2d_1: Conv2D input: output: (None, 32, 32, 64) (None, 16, 16, 128) 139831912524712-&gt;139831912523872 139831912523760 batch_normalization_v1: BatchNormalizationV1 input: output: (None, 16, 16, 128) (None, 16, 16, 128) 139831912523872-&gt;139831912523760 139831912525664 leaky_re_lu_1: LeakyReLU input: output: (None, 16, 16, 128) (None, 16, 16, 128) 139831912523760-&gt;139831912525664 139831912523256 conv2d_2: Conv2D input: output: (None, 16, 16, 128) (None, 8, 8, 256) 139831912525664-&gt;139831912523256 139831912522752 batch_normalization_v1_1: BatchNormalizationV1 input: output: (None, 8, 8, 256) (None, 8, 8, 256) 139831912523256-&gt;139831912522752 139831912522416 leaky_re_lu_2: LeakyReLU input: output: (None, 8, 8, 256) (None, 8, 8, 256) 139831912522752-&gt;139831912522416 139831912524432 conv2d_3: Conv2D input: output: (None, 8, 8, 256) (None, 4, 4, 512) 139831912522416-&gt;139831912524432 139831924458832 batch_normalization_v1_2: BatchNormalizationV1 input: output: (None, 4, 4, 512) (None, 4, 4, 512) 139831912524432-&gt;139831924458832 139831924459056 leaky_re_lu_3: LeakyReLU input: output: (None, 4, 4, 512) (None, 4, 4, 512) 139831924458832-&gt;139831924459056 139831924458608 flatten: Flatten input: output: (None, 4, 4, 512) (None, 8192) 139831924459056-&gt;139831924458608 139831924459392 dense: Dense input: output: (None, 8192) (None, 1) 139831924458608-&gt;139831924459392 139833666478320 activation: Activation input: output: (None, 1) (None, 1) 139831924459392-&gt;139833666478320 139831912863448 139831912863448 139831912863448-&gt;139831912525384 generator = build_generator(np.prod(discriminator.layers[-4].output_shape[1:]), 0.00015, 0.5) generator.summary() . _________________________________________________________________ Layer (type) Output Shape Param # ================================================================= dense_1 (Dense) (None, 1, 1, 8192) 827392 _________________________________________________________________ reshape (Reshape) (None, 4, 4, 512) 0 _________________________________________________________________ batch_normalization_v1_3 (Ba (None, 4, 4, 512) 2048 _________________________________________________________________ activation_1 (Activation) (None, 4, 4, 512) 0 _________________________________________________________________ conv2d_transpose (Conv2DTran (None, 8, 8, 256) 3277056 _________________________________________________________________ batch_normalization_v1_4 (Ba (None, 8, 8, 256) 1024 _________________________________________________________________ activation_2 (Activation) (None, 8, 8, 256) 0 _________________________________________________________________ conv2d_transpose_1 (Conv2DTr (None, 16, 16, 128) 819328 _________________________________________________________________ batch_normalization_v1_5 (Ba (None, 16, 16, 128) 512 _________________________________________________________________ activation_3 (Activation) (None, 16, 16, 128) 0 _________________________________________________________________ conv2d_transpose_2 (Conv2DTr (None, 32, 32, 64) 204864 _________________________________________________________________ batch_normalization_v1_6 (Ba (None, 32, 32, 64) 256 _________________________________________________________________ activation_4 (Activation) (None, 32, 32, 64) 0 _________________________________________________________________ conv2d_transpose_3 (Conv2DTr (None, 64, 64, 3) 4803 _________________________________________________________________ activation_5 (Activation) (None, 64, 64, 3) 0 ================================================================= Total params: 5,137,283 Trainable params: 5,135,363 Non-trainable params: 1,920 _________________________________________________________________ . SVG(model_to_dot(generator, show_shapes = True, show_layer_names = True).create(prog = &#39;dot&#39;, format = &#39;svg&#39;)) . G 139831857118904 dense_1: Dense input: output: (None, 1, 1, 100) (None, 1, 1, 8192) 139831857016672 reshape: Reshape input: output: (None, 1, 1, 8192) (None, 4, 4, 512) 139831857118904-&gt;139831857016672 139831856968872 batch_normalization_v1_3: BatchNormalizationV1 input: output: (None, 4, 4, 512) (None, 4, 4, 512) 139831857016672-&gt;139831856968872 139831857119072 activation_1: Activation input: output: (None, 4, 4, 512) (None, 4, 4, 512) 139831856968872-&gt;139831857119072 139831856144624 conv2d_transpose: Conv2DTranspose input: output: (None, 4, 4, 512) (None, 8, 8, 256) 139831857119072-&gt;139831856144624 139831856144960 batch_normalization_v1_4: BatchNormalizationV1 input: output: (None, 8, 8, 256) (None, 8, 8, 256) 139831856144624-&gt;139831856144960 139831856145016 activation_2: Activation input: output: (None, 8, 8, 256) (None, 8, 8, 256) 139831856144960-&gt;139831856145016 139831856145296 conv2d_transpose_1: Conv2DTranspose input: output: (None, 8, 8, 256) (None, 16, 16, 128) 139831856145016-&gt;139831856145296 139831856145632 batch_normalization_v1_5: BatchNormalizationV1 input: output: (None, 16, 16, 128) (None, 16, 16, 128) 139831856145296-&gt;139831856145632 139831856145688 activation_3: Activation input: output: (None, 16, 16, 128) (None, 16, 16, 128) 139831856145632-&gt;139831856145688 139831856145968 conv2d_transpose_2: Conv2DTranspose input: output: (None, 16, 16, 128) (None, 32, 32, 64) 139831856145688-&gt;139831856145968 139831856146304 batch_normalization_v1_6: BatchNormalizationV1 input: output: (None, 32, 32, 64) (None, 32, 32, 64) 139831856145968-&gt;139831856146304 139831856146360 activation_4: Activation input: output: (None, 32, 32, 64) (None, 32, 32, 64) 139831856146304-&gt;139831856146360 139831856146640 conv2d_transpose_3: Conv2DTranspose input: output: (None, 32, 32, 64) (None, 64, 64, 3) 139831856146360-&gt;139831856146640 139831856147144 activation_5: Activation input: output: (None, 64, 64, 3) (None, 64, 64, 3) 139831856146640-&gt;139831856147144 139831856147536 139831856147536 139831856147536-&gt;139831857118904 discriminator.trainable = False gan = build_gan(generator, discriminator, 0.00015, 0.5) gan.summary() . _________________________________________________________________ Layer (type) Output Shape Param # ================================================================= Generator (Sequential) (None, 64, 64, 3) 5137283 _________________________________________________________________ Discriminator (Sequential) (None, 1) 4318337 ================================================================= Total params: 9,455,620 Trainable params: 5,135,363 Non-trainable params: 4,320,257 _________________________________________________________________ . SVG(model_to_dot(gan, show_shapes = True, show_layer_names = True).create(prog = &#39;dot&#39;, format = &#39;svg&#39;)) . G 139831856147200 Generator: Sequential input: output: (None, 1, 1, 100) (None, 64, 64, 3) 139831912863112 Discriminator: Sequential input: output: (None, 64, 64, 3) (None, 1) 139831856147200-&gt;139831912863112 139829648328520 139829648328520 139829648328520-&gt;139831856147200 EPOCHS = 15000 BATCH_SIZE = 32 . def plot_images(nrows, ncols, figsize, generator): noise = np.random.normal(0, 1, size = (BATCH_SIZE * 2, ) + (1, 1, 100)) prediction = generator.predict(noise) fig, axes = plt.subplots(nrows = nrows, ncols = ncols, figsize = figsize) plt.setp(axes.flat, xticks = [], yticks = []
…
eturn gan . optimizer = Adam(0.0002, 0.5) . WARNING:tensorflow:From /opt/conda/lib/python3.6/site-packages/tensorflow/python/ops/resource_variable_ops.py:435: colocate_with (from tensorflow.python.framework.ops) is deprecated and will be removed in a future version. Instructions for updating: Colocations handled automatically by placer. . generator = build_generator(LATENT_DIMENSION, optimizer) generator.summary() . _________________________________________________________________ Layer (type) Output Shape Param # ================================================================= dense (Dense) (None, 256) 25856 _________________________________________________________________ dense_1 (Dense) (None, 6272) 1611904 _________________________________________________________________ batch_normalization_v1 (Batc (None, 6272) 25088 _________________________________________________________________ activation (Activation) (None, 6272) 0 _________________________________________________________________ reshape (Reshape) (None, 7, 7, 128) 0 _________________________________________________________________ up_sampling2d (UpSampling2D) (None, 14, 14, 128) 0 _________________________________________________________________ conv2d (Conv2D) (None, 14, 14, 64) 204864 _________________________________________________________________ up_sampling2d_1 (UpSampling2 (None, 28, 28, 64) 0 _________________________________________________________________ conv2d_1 (Conv2D) (None, 28, 28, 1) 1601 ================================================================= Total params: 1,869,313 Trainable params: 1,856,769 Non-trainable params: 12,544 _________________________________________________________________ . SVG(model_to_dot(generator, show_shapes = True, show_layer_names = True).create(prog = &#39;dot&#39;, format = &#39;svg&#39;)) . G 140657811852928 dense: Dense input: output: (None, 100) (None, 256) 140657811852480 dense_1: Dense input: output: (None, 256) (None, 6272) 140657811852928-&gt;140657811852480 140657811850072 batch_normalization_v1: BatchNormalizationV1 input: output: (None, 6272) (None, 6272) 140657811852480-&gt;140657811850072 140657811850240 activation: Activation input: output: (None, 6272) (None, 6272) 140657811850072-&gt;140657811850240 140657811987200 reshape: Reshape input: output: (None, 6272) (None, 7, 7, 128) 140657811850240-&gt;140657811987200 140657811988376 up_sampling2d: UpSampling2D input: output: (None, 7, 7, 128) (None, 14, 14, 128) 140657811987200-&gt;140657811988376 140657811986304 conv2d: Conv2D input: output: (None, 14, 14, 128) (None, 14, 14, 64) 140657811988376-&gt;140657811986304 140657796799456 up_sampling2d_1: UpSampling2D input: output: (None, 14, 14, 64) (None, 28, 28, 64) 140657811986304-&gt;140657796799456 140657796799680 conv2d_1: Conv2D input: output: (None, 28, 28, 64) (None, 28, 28, 1) 140657796799456-&gt;140657796799680 140657796800072 140657796800072 140657796800072-&gt;140657811852928 discriminator = build_discriminator(IMAGE_SHAPE, optimizer) discriminator.summary() . _________________________________________________________________ Layer (type) Output Shape Param # ================================================================= conv2d_2 (Conv2D) (None, 28, 28, 64) 1664 _________________________________________________________________ max_pooling2d (MaxPooling2D) (None, 14, 14, 64) 0 _________________________________________________________________ conv2d_3 (Conv2D) (None, 10, 10, 128) 204928 _________________________________________________________________ max_pooling2d_1 (MaxPooling2 (None, 5, 5, 128) 0 _________________________________________________________________ flatten (Flatten) (None, 3200) 0 _________________________________________________________________ dense_2 (Dense) (None, 1024) 3277824 _________________________________________________________________ dense_3 (Dense) (None, 1) 1025 ================================================================= Total params: 3,485,441 Trainable params: 3,485,441 Non-trainable params: 0 _________________________________________________________________ . SVG(model_to_dot(discriminator, show_shapes = True, show_layer_names = True).create(prog = &#39;dot&#39;, format = &#39;svg&#39;)) . G 140657811849736 conv2d_2: Conv2D input: output: (None, 28, 28, 1) (None, 28, 28, 64) 140657812316288 max_pooling2d: MaxPooling2D input: output: (None, 28, 28, 64) (None, 14, 14, 64) 140657811849736-&gt;140657812316288 140657793854768 conv2d_3: Conv2D input: output: (None, 14, 14, 64) (None, 10, 10, 128) 140657812316288-&gt;140657793854768 140657793420312 max_pooling2d_1: MaxPooling2D input: output: (None, 10, 10, 128) (None, 5, 5, 128) 140657793854768-&gt;140657793420312 140657793420480 flatten: Flatten input: output: (None, 5, 5, 128) (None, 3200) 140657793420312-&gt;140657793420480 140657793420536 dense_2: Dense input: output: (None, 3200) (None, 1024) 140657793420480-&gt;140657793420536 140657793420872 dense_3: Dense input: output: (None, 1024) (None, 1) 140657793420536-&gt;140657793420872 140657794233456 140657794233456 140657794233456-&gt;140657811849736 gan = build_gan(generator, discriminator, LATENT_DIMENSION, optimizer) gan.summary() . _________________________________________________________________ Layer (type) Output Shape Param # ================================================================= input_1 (InputLayer) (None, 100) 0 _________________________________________________________________ sequential (Sequential) (None, 28, 28, 1) 1869313 _________________________________________________________________ sequential_1 (Sequential) (None, 1) 3485441 ================================================================= Total params: 5,354,754 Trainable params: 1,856,769 Non-trainable params: 3,497,985 _________________________________________________________________ . SVG(model_to_dot(gan, show_shapes = True, show_layer_names = True).create(prog = &#39;dot&#39;, format = &#39;svg&#39;)) . G 140657796800184 input_1: InputLayer input: output: (None, 100) (None, 100) 140657796799512 sequential: Sequential input: output: (None, 100) (None, 28, 28, 1) 140657796800184-&gt;140657796799512 140657793420368 sequential_1: Sequential input: output: (None, 28, 28, 1) (None, 1) 140657796799512-&gt;140657793420368 def plot_images(nrows, ncols, figsize, generator): fig, axes = plt.subplots(nrows = nrows, ncols = ncols, figsize = figsize) plt.setp(axes.flat, xticks = [], yticks = []) noise = np.random.normal(0, 1, (nrows * ncols, LATENT_DIMENSION)) generated_images = generator.predict(noise).reshape(nrows * ncols, IMAGE_WIDTH, IMAGE_HEIGHT) for i, ax in enumerate(axes.flat): ax.imshow(gene
…
ptimizer = Adam(0.0002, 0.5) . WARNING:tensorflow:From /opt/conda/lib/python3.6/site-packages/tensorflow/python/ops/resource_variable_ops.py:435: colocate_with (from tensorflow.python.framework.ops) is deprecated and will be removed in a future version. Instructions for updating: Colocations handled automatically by placer. . generator = build_generator(LATENT_DIMENSION, IMAGE_SHAPE, optimizer) generator.summary() . _________________________________________________________________ Layer (type) Output Shape Param # ================================================================= dense (Dense) (None, 256) 25856 _________________________________________________________________ leaky_re_lu (LeakyReLU) (None, 256) 0 _________________________________________________________________ dense_1 (Dense) (None, 512) 131584 _________________________________________________________________ leaky_re_lu_1 (LeakyReLU) (None, 512) 0 _________________________________________________________________ dense_2 (Dense) (None, 1024) 525312 _________________________________________________________________ leaky_re_lu_2 (LeakyReLU) (None, 1024) 0 _________________________________________________________________ dense_3 (Dense) (None, 784) 803600 ================================================================= Total params: 1,486,352 Trainable params: 1,486,352 Non-trainable params: 0 _________________________________________________________________ . SVG(model_to_dot(generator, show_shapes = True, show_layer_names = True).create(prog = &#39;dot&#39;, format = &#39;svg&#39;)) . G 140039851837704 dense: Dense input: output: (None, 100) (None, 256) 140039851838320 leaky_re_lu: LeakyReLU input: output: (None, 256) (None, 256) 140039851837704-&gt;140039851838320 140039851837984 dense_1: Dense input: output: (None, 256) (None, 512) 140039851838320-&gt;140039851837984 140039852032408 leaky_re_lu_1: LeakyReLU input: output: (None, 512) (None, 512) 140039851837984-&gt;140039852032408 140039852035208 dense_2: Dense input: output: (None, 512) (None, 1024) 140039852032408-&gt;140039852035208 140039836789280 leaky_re_lu_2: LeakyReLU input: output: (None, 1024) (None, 1024) 140039852035208-&gt;140039836789280 140039836786872 dense_3: Dense input: output: (None, 1024) (None, 784) 140039836789280-&gt;140039836786872 140039836789224 140039836789224 140039836789224-&gt;140039851837704 discriminator = build_discriminator(IMAGE_SHAPE, optimizer) discriminator.summary() . WARNING:tensorflow:From /opt/conda/lib/python3.6/site-packages/tensorflow/python/keras/layers/core.py:143: calling dropout (from tensorflow.python.ops.nn_ops) with keep_prob is deprecated and will be removed in a future version. Instructions for updating: Please use `rate` instead of `keep_prob`. Rate should be set to `rate = 1 - keep_prob`. _________________________________________________________________ Layer (type) Output Shape Param # ================================================================= dense_4 (Dense) (None, 1024) 803840 _________________________________________________________________ leaky_re_lu_3 (LeakyReLU) (None, 1024) 0 _________________________________________________________________ dropout (Dropout) (None, 1024) 0 _________________________________________________________________ dense_5 (Dense) (None, 512) 524800 _________________________________________________________________ leaky_re_lu_4 (LeakyReLU) (None, 512) 0 _________________________________________________________________ dropout_1 (Dropout) (None, 512) 0 _________________________________________________________________ dense_6 (Dense) (None, 256) 131328 _________________________________________________________________ leaky_re_lu_5 (LeakyReLU) (None, 256) 0 _________________________________________________________________ dense_7 (Dense) (None, 1) 257 ================================================================= Total params: 1,460,225 Trainable params: 1,460,225 Non-trainable params: 0 _________________________________________________________________ . SVG(model_to_dot(discriminator, show_shapes = True, show_layer_names = True).create(prog = &#39;dot&#39;, format = &#39;svg&#39;)) . G 140039852301168 dense_4: Dense input: output: (None, 784) (None, 1024) 140039835964416 leaky_re_lu_3: LeakyReLU input: output: (None, 1024) (None, 1024) 140039852301168-&gt;140039835964416 140039835966712 dropout: Dropout input: output: (None, 1024) (None, 1024) 140039835964416-&gt;140039835966712 140039835965704 dense_5: Dense input: output: (None, 1024) (None, 512) 140039835966712-&gt;140039835965704 140039834315240 leaky_re_lu_4: LeakyReLU input: output: (None, 512) (None, 512) 140039835965704-&gt;140039834315240 140039834315296 dropout_1: Dropout input: output: (None, 512) (None, 512) 140039834315240-&gt;140039834315296 140039834315408 dense_6: Dense input: output: (None, 512) (None, 256) 140039834315296-&gt;140039834315408 140039834315800 leaky_re_lu_5: LeakyReLU input: output: (None, 256) (None, 256) 140039834315408-&gt;140039834315800 140039834315688 dense_7: Dense input: output: (None, 256) (None, 1) 140039834315800-&gt;140039834315688 140039834316528 140039834316528 140039834316528-&gt;140039852301168 gan = build_gan(generator, discriminator, LATENT_DIMENSION, optimizer) gan.summary() . _________________________________________________________________ Layer (type) Output Shape Param # ================================================================= input_1 (InputLayer) (None, 100) 0 _________________________________________________________________ Generator (Sequential) (None, 784) 1486352 _________________________________________________________________ Discriminator (Sequential) (None, 1) 1460225 ================================================================= Total params: 2,946,577 Trainable params: 1,486,352 Non-trainable params: 1,460,225 _________________________________________________________________ . SVG(model_to_dot(gan, show_shapes = True, show_layer_names = True).create(prog = &#39;dot&#39;, format = &#39;svg&#39;)) . G 140039832346128 input_1: InputLayer input: output: (None, 100) (None, 100) 140039836790008 Generator: Sequential input: output: (None, 100) (None, 784) 140039832346128-&gt;140039836790008 140039834316024 Discriminator: Sequential input: output: (None, 784) (None, 1) 140039836790008-&gt;140039834316024 def plot_images(nrows, ncols, figsize, generator): fig, axes = plt.subplots(nrows = nrows, ncols = ncols, figsize = figsize) plt.setp(axes.flat, xticks = [], yticks = []) noise = np.random.normal(0, 1, (nrows * ncols, LATENT_DIMENSION)) generated_images = generator.predict(noise).reshape(nrows * ncols, IMAGE_WIDTH, IMAGE_HEIGHT) for i, ax in enumerate(axes.flat): ax.imshow(gene
…
