…
local/lib/python3.6/dist-packages/tensorflow/python/ops/array_ops.py:1354: add_dispatch_support.&lt;locals&gt;.wrapper (from tensorflow.python.ops.array_ops) is deprecated and will be removed in a future version. Instructions for updating: Use tf.where in 2.0, which has the same broadcast rule as np.where Model: &#34;model_1&#34; __________________________________________________________________________________________________ Layer (type) Output Shape Param # Connected to ================================================================================================== the_input (InputLayer) (None, 128, 64, 1) 0 __________________________________________________________________________________________________ conv1 (Conv2D) (None, 128, 64, 64) 640 the_input[0][0] __________________________________________________________________________________________________ batch_normalization_1 (BatchNor (None, 128, 64, 64) 256 conv1[0][0] __________________________________________________________________________________________________ activation_1 (Activation) (None, 128, 64, 64) 0 batch_normalization_1[0][0] __________________________________________________________________________________________________ max1 (MaxPooling2D) (None, 64, 32, 64) 0 activation_1[0][0] __________________________________________________________________________________________________ conv2 (Conv2D) (None, 64, 32, 128) 73856 max1[0][0] __________________________________________________________________________________________________ batch_normalization_2 (BatchNor (None, 64, 32, 128) 512 conv2[0][0] __________________________________________________________________________________________________ activation_2 (Activation) (None, 64, 32, 128) 0 batch_normalization_2[0][0] __________________________________________________________________________________________________ max2 (MaxPooling2D) (None, 32, 16, 128) 0 activation_2[0][0] __________________________________________________________________________________________________ conv3 (Conv2D) (None, 32, 16, 256) 295168 max2[0][0] __________________________________________________________________________________________________ batch_normalization_3 (BatchNor (None, 32, 16, 256) 1024 conv3[0][0] __________________________________________________________________________________________________ activation_3 (Activation) (None, 32, 16, 256) 0 batch_normalization_3[0][0] __________________________________________________________________________________________________ conv4 (Conv2D) (None, 32, 16, 256) 590080 activation_3[0][0] __________________________________________________________________________________________________ batch_normalization_4 (BatchNor (None, 32, 16, 256) 1024 conv4[0][0] __________________________________________________________________________________________________ activation_4 (Activation) (None, 32, 16, 256) 0 batch_normalization_4[0][0] __________________________________________________________________________________________________ max3 (MaxPooling2D) (None, 32, 8, 256) 0 activation_4[0][0] __________________________________________________________________________________________________ conv5 (Conv2D) (None, 32, 8, 512) 1180160 max3[0][0] __________________________________________________________________________________________________ batch_normalization_5 (BatchNor (None, 32, 8, 512) 2048 conv5[0][0] __________________________________________________________________________________________________ activation_5 (Activation) (None, 32, 8, 512) 0 batch_normalization_5[0][0] __________________________________________________________________________________________________ conv6 (Conv2D) (None, 32, 8, 512) 2359808 activation_5[0][0] __________________________________________________________________________________________________ batch_normalization_6 (BatchNor (None, 32, 8, 512) 2048 conv6[0][0] __________________________________________________________________________________________________ activation_6 (Activation) (None, 32, 8, 512) 0 batch_normalization_6[0][0] __________________________________________________________________________________________________ max4 (MaxPooling2D) (None, 32, 4, 512) 0 activation_6[0][0] __________________________________________________________________________________________________ con7 (Conv2D) (None, 32, 4, 512) 1049088 max4[0][0] __________________________________________________________________________________________________ batch_normalization_7 (BatchNor (None, 32, 4, 512) 2048 con7[0][0] __________________________________________________________________________________________________ activation_7 (Activation) (None, 32, 4, 512) 0 batch_normalization_7[0][0] __________________________________________________________________________________________________ reshape (Reshape) (None, 32, 2048) 0 activation_7[0][0] __________________________________________________________________________________________________ dense1 (Dense) (None, 32, 64) 131136 reshape[0][0] __________________________________________________________________________________________________ lstm1 (CuDNNLSTM) (None, 32, 256) 329728 dense1[0][0] __________________________________________________________________________________________________ lstm1_b (CuDNNLSTM) (None, 32, 256) 329728 dense1[0][0] __________________________________________________________________________________________________ add_1 (Add) (None, 32, 256) 0 lstm1[0][0] lstm1_b[0][0] __________________________________________________________________________________________________ batch_normalization_8 (BatchNor (None, 32, 256) 1024 add_1[0][0] __________________________________________________________________________________________________ lstm2 (CuDNNLSTM) (None, 32, 256) 526336 batch_normalization_8[0][0] __________________________________________________________________________________________________ lstm2_b (CuDNNLSTM) (None, 32, 256) 526336 batch_normalization_8[0][0] __________________________________________________________________________________________________ concatenate_1 (Concatenate) (None, 32, 512) 0 lstm2[0][0] lstm2_b[0][0] __________________________________________________________________________________________________ dense2 (Dense) (None, 32, 42) 21546 concatenate_1[0][0] __________________________________________________________________________________________________ softmax (Activation) (None, 32, 42) 0 dense2[0][0] __________________________________________________________________________________________________ the_labels (InputLayer) (None, 9) 0 __________________________________________________________________________________________________ input_length (InputLayer) (None, 1) 0 __________________________________________________________________________________________________ label_length (InputLayer) (None, 1) 0 __________________________________________________________________________________________________ ctc (Lambda) (None, 1) 0 softmax[0][0] the_labels[0][0] input_length[0][0] label_length[0][0] ================================================================================================== Total params: 7,423,594 Trainable params: 7,418,602 Non-trainable params: 4,992 __________________________________________________________________________________________________ . plot_model( model, to_file = &#39;model.png&#39;, 
…
